3dcdrl/saved_models/two_col_p1_checkpoint_0198658048.pth.tar (torch_old, 793561 bytes, 15 tensors)

conv_head.0.weight f4 [16, 3, 8, 8]
-0.17283243 -0.25751182 -0.13736518 -0.04664463 -0.026329037 0.0008991732 -0.13595995 0.09817991
-0.06982971 -0.10071985 -0.31116122 0.013369662 -0.084955364 -0.18891415 -0.041737586 0.02426035
0.05900422 -0.028286878 -0.09149806 -0.07920993 0.14131178 -0.19845651 -0.29806897 0.04699424
0.50347996 0.16753364 0.4662163 0.39551416 0.0482322 -0.20267598 -0.17244086 -0.13269609
0.27297148 -0.0051438715 0.27266303 0.18553166 -0.1582522 -0.048291586 -0.30488124 -0.07627184
0.41161266 0.33216664 0.25767386 0.32043588 -0.00818955 -0.060082506 -0.377236 -0.06275602
0.32252932 0.10186163 0.28444868 0.23064213 -0.050143868 -0.26150674 -0.1655538 -0.14892979
0.36598063 0.2882204 0.44196406 0.06700966 -0.098057024 -0.22591357 -0.2841816 -0.21608527
0.11106859 -0.073806934 0.06883624 0.13282633 -0.047316443 -0.17185457 -0.09650499 -0.19216488
-0.009701267 0.11051177 0.31675208 0.22645058 0.10874341 0.0013195314 -0.013230312 -0.009451238
-0.0693985 -0.0337383 0.15480846 0.13092792 0.21308935 0.29399595 0.091731444 0.13595434
-0.32656267 -0.3153394 -0.23902324 -0.2402195 0.045745187 0.2411036 0.1823125 0.056952443
-0.5450426 -0.3697461 -0.21976623 -0.24291049 0.08173231 -0.0125587825 0.007956752 -0.03864866
-0.3810177 -0.27619714 -0.21319519 -0.14002843 0.05252026 -0.045529697 -0.08142549 -0.019202892
-0.21010423 0.06264603 -0.3102571 -0.16451338 -0.010595957 0.17733294 0.248917 0.11453025
-0.20081986 -0.025122957 -0.15024054 0.07605728 0.078488514 0.16234002 0.21765448 0.030130146
0.008879369 -0.02735743 0.18856357 0.010957906 0.09733096 0.13338661 -0.21790825 0.20243163
0.22874811 -0.15243499 0.09991246 0.1425007 0.18471394 0.38840547 0.045570105 0.044973593
-0.33857724 -0.30387107 -0.4112584 -0.039593834 -0.1028731 0.35667112 0.03474755 -0.00046521288
-0.64598686 -0.39013696 -0.45270407 -0.21273832 0.019653747 -0.06894721 0.2294039 0.19670811
-0.29820776 -0.4246663 -0.20876253 -0.0394617 0.19438638 -0.1029069 0.16036403 0.31788862
-0.44488567 -0.10115362 -0.24975634 0.024903767 0.20030184 0.36762148 0.1832268 0.13316597
-0.4234536 -0.44510671 -0.4895559 -0.10752227 0.17982675 0.14851993 0.20231767 0.06982684
-0.4749919 -0.6364827 -0.3731703 -0.15038182 -0.096927 0.10674849 0.03473624 0.125544
-0.045605067 -0.06014192 -0.22053343 -0.05884302 0.0031765378 -0.16850431 0.01389177 -0.075831935
-0.08725056 -0.09064446 -0.24204712 0.063515685 -0.14866729 -0.017824207 0.11541048 -0.047206998
-0.13379164 -0.5066858 -0.14348309 -0.21902177 -0.16130556 -0.14509343 -0.18631707 0.009630182
-0.10352618 -0.27551425 0.0027931246 -0.3351949 0.024117013 -0.3047632 -0.41259497 -0.13593106
-0.15377828 -0.082502894 -0.105239 0.03559964 -0.2138548 -0.103027955 -0.05838758 -0.058792245
0.028861787 -0.029429765 -0.23933652 -0.17624456 -0.097176395 -0.10170484 0.06612227 0.1267735
0.093245044 -0.037125327 0.0046660383 -0.12857577 -0.026855068 -0.07294531 0.019831087 0.029695291
-0.055135116 -0.079472244 0.0018894848 0.024117718 -0.026430469 -0.0131924525 0.106522135 -0.011486305
00000000: fcfa 30be 97d8 83be 75a9 0cbe 710e 3fbd
00000010: feaf d7bc 7eb6 6b3a 1639 0bbe 8c12 c93d
00000020: e102 8fbd 3546 cebd 8650 9fbe 6d0c 5b3c
00000030: 14fd adbd b672 41be 08f5 2abd a4bd c63c
00000040: 69ae 713d e2b9 e7bc 5663 bbbd d138 a2bd
00000050: 09b4 103e 2f38 4bbe 7f9c 98be 087d 403d
00000060: 10e4 003f f08d 2b3e e7b3 ee3e d580 ca3e
00000070: 218f 453d 4b8a 4fbe 5694 30be 7ce1 07be
00000080: ebc2 8b3e ec8d a8bb 7d9a 8b3e 03fc 3d3e
00000090: dd0c 22be 66cd 45bd 6519 9cbe 6934 9cbd
000000a0: e5be d23e bf11 aa3e d4ed 833e 2c10 a43e
000000b0: 762d 06bc 1319 76bd 1425 c1be 3a86 80bd
000000c0: 9022 a53e d59c d03d 42a3 913e 732d 6c3e
000000d0: a863 4dbd 36e4 85be ef86 29be 0d81 18be
000000e0: d061 bb3e a091 933e 1d49 e23e 5c3c 893d
000000f0: 1fd2 c8bd e355 67be 4080 91be 7545 5dbe
00000100: ee77 e33d 1728 97bd 04fa 8c3d a003 083e
00000110: e3ce 41bd a5fa 2fbe 68a4 c5bd dfc6 44be
00000120: 10f2 1ebc ff53 e23d 542d a23e a9e2 673e
00000130: ddb4 de3d 20f4 ac3a f3c3 58bc 5ed9 1abc
00000140: cd20 8ebd 2c31 0abd 1c86 1e3e f811 063e
00000150: 1834 5a3e a386 963e b2dd bb3d 9d37 0b3e
00000160: 3933 a7be 2a74 a1be 82c2 74be 1afc 75be
00000170: 4e5f 3b3d dde3 763e 21b0 3a3e f746 693d
00000180: e987 0bbf 5c4f bdbe 660a 61be 87bd 78be
00000190: 4563 a73d 5ac3 4dbc 095d 023c 0f4e 1ebd
000001a0: c114 c3be b669 8dbe d74f 5abe 9d63 0fbe
000001b0: 7c1f 573d 597d 3abd 68c2 a6bd 624f 9dbc
000001c0: 9025 57be 904c 803d 05da 9ebe 3276 28be
000001d0: aa9a 2dbc c496 353e 19e4 7e3e d68e ea3d
000001e0: b9a3 4dbe a9ce cdbc a8d8 19be ebc3 9b3d
000001f0: 96be a03d 763c 263e d1e0 5e3e 7fd3 f63c
00000200: c67a 113c b01c e0bc cf16 413e ca88 333c
00000210: 7455 c73d 8096 083e 5723 5fbe 3d4a 4f3e
00000220: f23c 6a3e eb17 1cbe e79e cc3d b4eb 113e
00000230: a725 3d3e 15dd c63e b8a7 3a3d 3b36 383d
00000240: ff59 adbe fd94 9bbe 7690 d2be 252d 22bd
00000250: 22af d2bd 999d b63e 7253 0e3d d1e7 f3b9
00000260: 655f 25bf 08c0 c7be d4c8 e7be 13d8 59be
00000270: e500 a13c 3234 8dbd dbe8 6a3e da6d 493e
00000280: b0ae 98be dc6d d9be d8c5 55be 97a2 21bd
00000290: 390d 473e dac0 d2bd 7836 243e 4cc2 a23e
000002a0: 0ec8 e3be a129 cfbd 20c0 7fbe fc02 cc3c
000002b0: ed1b 4d3e e238 bc3e ce9f 3b3e a95c 083e
000002c0: e9ce d8be 07e5 e3be 12a7 fabe a334 dcbd
000002d0: 8124 383e 9c15 183e 5d2c 4f3e 6001 8f3d
000002e0: 2332 f3be 88f0 22bf 2d10 bfbe b1fd 19be
000002f0: aa81 c6bd f49e da3d 9647 0e3d 9b8e 003e
00000300: 61cc 3abd 6057 76bd 84d3 61be 6105 71bd
00000310: 762d 503b 658c 2cbe 4e9a 633c c64d 9bbd
00000320: 6cb0 b2bd cda3 b9bd 33db 77be 8314 823d
00000330: 3d3c 18be 1204 92bc 545c ec3d 205c 41bd
00000340: ad00 09be 29b6 01bf 3bed 12be 3e47 60be
00000350: 492d 25be 5f93 14be e7c9 3ebe e9c7 1d3c
00000360: 8905 d4bd 3410 8dbe db0c 373b aa9e abbe
00000370: 0b91 c53c ec09 9cbe a63f d3be 8331 0bbe
00000380: 0e78 1dbe 47f7 a8bd 8b87 d7bd eed0 113d
00000390: c1fc 5abe 5200 d3bd d127 6fbd 23d0 70bd
000003a0: 8e6f ec3c b116 f1bc a214 75be 7479 34be
000003b0: 6b04 c7bd a14a d0bd 1d6b 873d ead0 013e
000003c0: 42f7 be3d ba10 18bd 91e5 983b 5ea9 03be
000003d0: 29ff dbbc 5a64 95bd ce74 a23c 8a43 f33c
000003e0: 5cd5 61bd 58c2 a2bd 97a8 f73a 8592 c53c
000003f0: b684 d8bc 2825 58bc 4728 da3d 0e31 3cbc

conv_head.0.bias f4 [16]
0.050999876 -0.3090198 -0.08796023 0.13197629 0.015837694 -0.17371154 -0.06984511 -0.08909205
0.020056166 -0.05178482 -0.0839849 -0.16443832 0.012446298 -0.19460055 -0.016611077 -0.323534
00000000: 3fe5 503d d837 9ebe 7e24 b4bd cb24 073e
00000010: 0dbe 813c 70e1 31be f40a 8fbd e575 b6bd
00000020: d44c a43c 521c 54bd 4600 acbd 8562 28be
00000030: 8feb 4b3c 5e45 47be f413 88bc 40a6 a5be

conv_head.2.weight f4 [32, 16, 4, 4]
0.2747907 0.040996414 -0.11299305 -0.2401406 0.3303139 0.29720017 -0.06499026 0.09314468
0.0010679113 0.08542332 -0.33449742 -0.31804162 0.44097844 0.6030243 -0.11803951 -0.2689261
-0.10721477 -0.041017108 0.030779475 0.4231015 -0.7597399 -0.5462913 -0.06691122 0.28432375
0.37271047 0.18351519 -0.49436095 -0.6947496 -0.23572291 -0.2856779 -0.083387055 -0.57163584
-0.23653714 -0.20299384 0.023519406 -0.19242907 -0.43038705 -0.28633046 -0.46764827 0.13763933
0.08257574 -0.13583542 -0.33077067 -0.07729788 0.3122139 0.1328167 -0.11550695 -0.16925594
-0.21974562 -0.25567755 -0.24220634 -0.095590636 0.19248666 -0.3749262 -0.16104047 -0.27491263
-0.09836132 -0.39769506 0.10996779 -0.040516164 -0.045055866 -0.039881974 0.21892467 0.3144237
0.051950596 0.030527862 -0.21195829 -0.20320335 -0.0712726 -0.47797313 -0.03648774 0.19068654
-0.062131323 -0.31739712 -0.23601377 0.07709423 0.31017438 0.5833758 -0.15694214 -0.15034994
-0.23556064 0.10021786 0.26019788 0.29900098 0.05350493 -0.339673 -0.17997962 -0.18071757
-0.06053198 -0.35167354 -0.08165811 -0.13900644 0.007526712 0.10441135 -0.21975213 -0.22778647
-0.0035953908 0.15422073 -0.0068677072 0.004350278 -0.05173785 -0.06709627 -0.123014055 0.028557288
0.102608934 0.0033915855 0.03834909 -0.034122445 0.1718576 0.04952807 -0.15327854 0.013976237
-0.10780942 0.09850353 0.01696761 -0.061793998 -0.37015495 -0.3162432 -0.12975515 -0.17626412
0.24962364 0.1475073 0.012304106 0.103452064 -0.100474544 -0.153913 -0.1312601 -0.054008394
-0.14621179 -0.16762201 -0.08716617 -0.11036658 -0.05121379 0.13807334 0.060549926 -0.44061998
0.24867007 0.20446403 -0.14712119 -0.6357967 -0.20696369 -0.35286313 -0.16896072 -0.32804808
-0.114098445 -0.17490974 0.018313808 0.19808173 -0.16197471 -0.14322397 -0.0256547 0.091930956
0.27795604 0.031736184 -0.6769023 -0.39423808 0.20544769 -0.018130159 -0.15080868 -0.37299055
0.066330366 0.0639991 -0.009295553 0.21903762 -0.21179874 -0.28472325 -0.018914595 -0.27915153
-0.20491907 -0.3134157 -0.15247749 -0.19440411 0.056776457 0.09904914 -0.05802045 0.013525767
-0.061796162 -0.08233894 0.2372066 -0.19479753 -0.61948943 -0.41871604 0.029420685 0.43831086
-0.21028477 -0.4279278 -0.46817294 -0.33160937 0.26558977 0.22204901 -0.366559 -0.3119238
0.5100542 0.35427403 0.47801626 0.14243586 -0.039026447 0.47673932 -0.008703383 0.40866747
-0.15685205 -0.383231 -0.2567171 -0.16847052 -0.021300413 0.22838348 0.013113762 0.22139934
-0.115773015 -0.18337108 0.07342038 0.5121775 -0.27122086 -0.26064792 -0.2725079 -0.0022957462
0.45546904 0.13587734 -0.5960422 -0.44811085 0.0647142 -0.35560718 -0.5191654 -0.37938625
0.33194846 -0.07841685 -0.35445353 0.16125087 0.29532507 0.055010207 0.0043261056 -0.18621647
0.2413752 0.16863677 -0.20955014 -0.06416942 0.025734305 -0.13838649 -0.33538574 -0.020733472
0.22033998 0.10201398 0.14615476 -0.353974 -0.25365824 -0.16877925 -0.15380448 0.092892095
0.38154295 0.1292272 -0.2675234 -0.18968536 -0.12576288 0.0216791 -0.44252908 -0.18416005
00000000: 5eb1 8c3e dbeb 273d e668 e7bd 6be7 75be
00000010: e71e a93e 9f2a 983e 9d19 85bd a3c2 be3d
00000020: 28f9 8b3a 6cf2 ae3d 3f43 abbe 5ad6 a2be
00000030: edc7 e13e cd5f 1a3f b3be f1bd afb0 89be
00000040: 6b93 dbbd 8e01 28bd 3d25 fc3c c3a0 d83e
00000050: 507e 42bf bfd9 0bbf c008 89bd e292 913e
00000060: e8d3 be3e 68eb 3b3e e11c fdbe 1cdb 31bf
00000070: 5961 71be 6044 92be d5c6 aabd ba56 12bf
00000080: cb36 72be 9edd 4fbe c5ab c03c 200c 45be
00000090: b15b dcbe e899 92be 986f efbe 53f1 0c3e
000000a0: 781d a93d 7118 0bbe c65a a9be 5a4e 9ebd
000000b0: 80da 9f3e 1a01 083e e88e ecbd 6e51 2dbe
000000c0: ff04 61be 2be8 82be f004 78be 06c5 c3bd
000000d0: 391b 453e 54f6 bfbe cbe7 24be 59c1 8cbe
000000e0: a971 c9bd b09e cbbe cb36 e13d 47f4 25bd
000000f0: 808c 38bd 485b 23bd ca2d 603e 25fc a03e
00000100: 26ca 543d 9115 fa3c 980b 59be 8a14 50be
00000110: 5ef7 91bd e5b8 f4be 2b74 15bd 5543 433e
00000120: 6a7d 7ebd e081 a2be 98ad 71be 94e3 9d3d
00000130: 2dcf 9e3e 1e58 153f 71b5 20be 56f5 19be
00000140: cf36 71be 053f cd3d a838 853e a816 993e
00000150: fc27 5b3d 9fe9 adbe 944c 38be 070e 39be
00000160: 62f0 77bd 8e0e b4be 5e3c a7bd b457 0ebe
00000170: a3a2 f63b 9ed5 d53d b406 61be db40 69be
00000180: a6a0 6bbb 0aec 1d3e 810a e1bb c78c 8e3b
00000190: 11eb 53bd c569 89bd cbee fbbd f9f0 e93c
000001a0: a224 d23d 5d45 5e3b ef13 1d3d fac3 0bbd
000001b0: 70fb 2f3e f2dd 4a3d 0df5 1cbe 96fc 643c
000001c0: 2fcb dcbd 38bc c93d a8ff 8a3c b41b 7dbd
000001d0: f384 bdbe a1ea a1be 89de 04be 957e 34be
000001e0: 579d 7f3e 270c 173e 2997 493c adde d33d
000001f0: 99c5 cdbd 5f9b 1dbe 0c69 06be e837 5dbd
00000200: 8bb8 15be 1ba5 2bbe 2d84 b2bd e007 e2bd
00000210: 8dc5 51bd 1963 0d3e 3303 783d f198 e1be
00000220: 5ea3 7e3e 055f 513e f0a6 16be 93c3 22bf
00000230: 4aee 53be 7aaa b4be 0a04 2dbe ebf5 a7be
00000240: 72ac e9bd 8a1b 33be d706 963c f0d5 4a3e
00000250: b3dc 25be 4ea9 12be ce29 d2bc 4c46 bc3d
00000260: 4150 8e3e cdfd 013d 7849 2dbf 93d9 c9be
00000270: e160 523e b385 94bc 976d 1abe 9ef8 bebe
00000280: 37d8 873d f611 833d 604c 18bc 664b 603e
00000290: c5e1 58be 3fc7 91be c8f2 9abc f3ec 8ebe
000002a0: 4ed6 51be 0678 a0be 0f23 1cbe df11 47be
000002b0: 6e8e 683d 47da ca3d daa6 6dbd 2e9b 5d3c
000002c0: f91d 7dbd 51a1 a8bd 49e6 723e 0179 47be
000002d0: dc96 1ebf f361 d6be a603 f13c 486a e03e
000002e0: e454 57be 5a19 dbbe 5db4 efbe b4c8 a9be
000002f0: 62fb 873e d160 633e 9fad bbbe 7ab4 9fbe
00000300: e992 023f 6863 b53e 8cbe f43e b5da 113e
00000310: 32da 1fbd 2d17 f43e a298 0ebc dd3c d13e
00000320: d39d 20be db36 c4be 6c70 83be 8983 2cbe
00000330: 347e aebc 5cdd 693e 1bdb 563c 82b6 623e
00000340: 671a edbd a1c5 3bbe 6d5d 963d 111e 033f
00000350: 76dd 8abe a573 85be 2886 8bbe 3b74 16bb
00000360: 3d33 e93e 6e23 0b3e 3996 18bf c96e e5be
00000370: e188 843d 2512 b6be 06e8 04bf ea3e c2be
00000380: 26f5 a93e 0399 a0bd ef7a b5be f31e 253e
00000390: d934 973e 6252 613d 01c2 8d3b 88af 3ebe
000003a0: 0f2b 773e 1eaf 2c3e 5094 56be 426b 83bd
000003b0: c0d0 d23c 30b5 0dbe aeb7 abbe 3ed9 a9bc
000003c0: cea0 613e b5ec d03d 98a9 153e 153c b5be
000003d0: 7edf 81be 78d4 2cbe ec7e 1dbe 363e be3d
000003e0: 9959 c33e 2354 043e d4f8 88be e13c 42be
000003f0: fcc7 00be 5e98 b13c 2c93 e2be 7494 3cbe

conv_head.2.bias f4 [32]
0.028974492 -0.22892176 -0.15955532 0.005352304 0.007551674 0.1402438 -0.062728815 -0.051994767
0.0071688597 -0.021543387 -0.35934073 0.019696774 -0.05771683 0.105014354 0.022270717 0.033083215
0.023277158 -0.39333692 0.066927746 0.16885957 0.037485547 0.07860313 0.094846085 0.13831083
0.0030952548 -0.03491905 -0.010631476 0.0009339161 0.061937675 -0.0117131835 -0.23811442 0.04266841
00000000: ea5b ed3c 776a 6abe 7862 23be 6162 af3b
00000010: 0874 f73b 129c 0f3e f777 80bd 77f8 54bd
00000020: c1e8 ea3b c27b b0bc 82fb b7be 215b a13c
00000030: 7c68 6cbd c411 d73d 1471 b63c 4482 073d
00000040: bdaf be3c 7563 c9be 6a11 893d 86e9 2c3e
00000050: 728a 193d aefa a03d aa3e c23d 5ba1 0d3e
00000060: c2d9 4a3b 4707 0fbd a42f 2ebc 0cd2 743a
00000070: 5cb2 7d3d a7e8 3fbc 44d4 73be 12c5 2e3d

conv_head.4.weight f4 [16, 32, 3, 3]
-0.4165106 -0.13166896 -0.12151928 0.061746076 0.013392775 -0.14969169 0.09447877 -0.15353622
-0.13069977 -0.31025127 0.011004663 0.022405082 -0.23681451 0.14357129 0.21855274 0.23601414
0.02204505 0.03560199 -0.08937923 -0.38487083 -0.17968296 -0.304703 -0.252638 -0.060720306
-0.12730168 -0.15940921 -0.25870395 0.20104498 0.14698604 0.16558106 -0.150913 -0.13145402
0.1311111 -0.07724429 0.054613013 0.07225632 -0.14782754 -0.2104995 -0.33708248 0.113695964
0.15300117 0.087336406 -0.116027884 -0.14729448 0.13327645 -0.044257347 -0.17254527 0.055786762
-0.18297787 -0.31877905 0.06545366 0.10643336 0.06114563 -0.01788783 0.17424363 0.17014416
-0.06748021 -0.6540737 -0.7125851 -0.46590573 0.13460743 -0.09187144 0.029016325 -0.5444392
0.118606925 -0.12184038 0.102804154 0.29729518 0.24741913 0.1317849 -0.06934389 0.060983922
-0.015094065 0.040816955 -0.030739449 -0.08199815 -0.188587 -0.07708137 0.13399984 -0.13265786
-0.01281985 -0.06969627 0.13588342 0.093280345 0.18600562 0.14987949 -0.017117202 0.09063327
0.03554726 -0.29441693 0.38367975 0.28214544 -0.61456907 -0.82651305 -0.5782703 -0.47328728
-0.19654682 0.0530355 -0.1456692 0.1510579 -0.36606717 0.08282345 0.19019592 0.05949297
-0.08362554 0.10451597 -0.13408364 0.15988256 0.17504118 0.18849829 0.16106808 0.2140827
0.3309136 -0.114522435 -0.006846386 0.028480448 -0.048661202 0.15635026 -0.020720258 -0.059977643
-0.6168497 -0.4981264 -0.11621792 0.14946079 0.04237349 -0.074724734 -0.0039517586 0.2208531
-0.06666167 0.18466882 0.34241673 0.26589388 0.11735291 0.14935064 0.086930275 0.2717319
0.20315804 0.33862805 0.0071633696 0.025567466 -0.09498041 -0.3159565 0.19319762 -0.10338526
-0.20226967 0.15811524 0.12884532 0.037123624 -0.097176515 -0.0021662961 0.09356731 0.124244705
0.17966613 0.06816972 -0.20856847 -0.04875439 -0.46119425 -0.31168237 -0.15442646 0.059945945
0.14517473 0.2291763 -0.41868594 -0.10969707 0.16260558 -0.008670825 -0.09583221 0.13121073
-0.13569644 0.15336835 0.12017564 -0.19611908 0.12535408 0.3138098 0.14043207 0.04683464
0.246769 -0.045730878 -0.15286191 -0.26908037 0.094304584 0.33388174 0.07663233 -0.3539191
-0.44759244 -0.013887905 -0.26916283 -0.03879393 0.04716902 -0.10978531 0.009212514 -0.0401393
0.33001235 -0.07707313 -0.15054767 0.02723348 0.14101395 -0.14150673 0.04269296 0.134329
0.2140884 -0.550033 -0.5013257 -0.6862303 -0.3609932 -0.12628628 0.11557791 -0.27222854
0.076421574 0.31282955 0.13334605 0.10953398 0.02601398 -0.014974604 -0.1417485 0.11249018
0.27861112 0.32491493 0.21015011 -0.26586318 -0.048089933 -0.25511104 -0.017506152 0.08072922
-0.09182197 -0.14038311 -0.0078324955 0.09131984 -0.06502424 -0.15042685 -0.22069742 0.13969882
-0.042830154 -0.075705305 -0.10305884 -0.4234035 -0.23318927 0.1992226 0.027239239 0.068121545
-0.18630967 -0.18151054 -0.13544916 -0.25016838 -0.34294578 -0.09180925 -0.19580452 -0.035347816
-0.11836521 0.17957091 -0.028648255 -0.23581967 0.13431421 0.031353634 0.012337039 -0.07611058
00000000: e140 d5be 3ad4 06be 1adf f8bd 74e9 7c3d
00000010: 5f6d 5b3c c748 19be 167e c13d 9938 1dbe
00000020: 29d6 05be 41d9 9ebe e74c 343c dd8a b73c
00000030: 817f 72be 5a04 133e 4acc 5f3e b1ad 713e
00000040: d297 b43c 64d3 113d 750c b7bd ca0d c5be
00000050: cffe 37be 0802 9cbe c559 81be dbb5 78bd
00000060: 5f5b 02be 2b3c 23be d874 84be bcde 4d3e
00000070: 8283 163e 158e 293e f088 1abe e29b 06be
00000080: fd41 063e 4132 9ebd e5b1 5f3d 1ffb 933d
00000090: 1a60 17be 2e8d 57be 1396 acbe 6ed9 e83d
000000a0: 57ac 1c3e 6edd b23d 07a0 edbd 5dd4 16be
000000b0: 9f79 083e 3147 35bd b5af 30be a980 643d
000000c0: 8d5e 3bbe 0237 a3be 920c 863d bcf9 d93d
000000d0: d773 7a3d 8089 92bc ec6c 323e 453a 2e3e
000000e0: 1033 8abd 6071 27bf fa6b 36bf 328b eebe
000000f0: 88d6 093e 1827 bcbd a5b3 ed3c 5e60 0bbf
00000100: 30e8 f23d 7387 f9bd fc8a d23d 1337 983e
00000110: 715b 7d3e 9ff2 063e 2b04 8ebd 47ca 793d
00000120: 194d 77bc ae2f 273d 4cd1 fbbc a5ee a7bd
00000130: f31c 41be d6dc 9dbd 4137 093e 76d7 07be
00000140: 590a 52bc ebbc 8ebd 0625 0b3e c409 bf3d
00000150: 4278 3e3e 027a 193e 6039 8cbc f09d b93d
00000160: 019a 113d d1bd 96be ac71 c43e 5e75 903e
00000170: 6654 1dbf 5c96 53bf 8609 14bf b652 f2be
00000180: 9243 49be c13b 593d 4f2a 15be ecae 1a3e
00000190: 286d bbbe 579f a93d b8c2 423e e7ae 733d
000001a0: de43 abbd 780c d63d 394d 09be 41b8 233e
000001b0: ff3d 333e b205 413e 08ef 243e 7f38 5b3e
000001c0: 826d a93e bd8a eabd a657 e0bb d44f e93c
000001d0: f850 47bd 481a 203e 88bd a9bc 1eab 75bd
000001e0: dde9 1dbf 6c0a ffbe a903 eebd 400c 193e
000001f0: d38f 2d3d 4809 99bd c17d 81bb 5127 623e
00000200: ea85 88bd d319 3d3e 3f51 af3e 3e23 883e
00000210: b956 f03d 60ef 183e 8008 b23d 7220 8b3e
00000220: a908 503e a860 ad3e b3ba ea3b dd72 d13c
00000230: 1785 c2bd 0dc5 a1be 99d5 453e a7bb d3bd
00000240: c81f 4fbe f6e8 213e 07f0 033e f10e 183d
00000250: 7b04 c7bd 6bf8 0dbb 38a0 bf3d 0274 fe3d
00000260: 66fa 373e 919c 8b3d f992 55be afb2 47bd
00000270: a721 ecbe d594 9fbe f821 1ebe e189 753d
00000280: afa8 143e 31ad 6a3e 015e d6be dca8 e0bd
00000290: 1482 263e 1310 0ebc ad43 c4bd 1b5c 063e
000002a0: 02f4 0abe 980c 1d3e a51e f63d 71d3 48be
000002b0: d25c 003e aeab a03e 6dcd 0f3e aed5 3f3d
000002c0: 03b1 7c3e 4d50 3bbd d587 1cbe e7c4 89be
000002d0: c322 c13d 8cf2 aa3e 69f1 9c3d e234 b5be
000002e0: d62a e5be 188a 63bc b6cf 89be 62e6 1ebd
000002f0: 4d34 413d 1fd7 e0bd 16f0 163c 1b69 24bd
00000300: 61f7 a83e 84d8 9dbd 2b29 1abe bf18 df3c
00000310: f665 103e 24e7 10be d0de 2e3d 8b8d 093e
00000320: fd39 5b3e f6ce 0cbf e256 00bf caac 2fbf
00000330: 1ad4 b8be 3151 01be 1cb4 ec3d 8a61 8bbe
00000340: ea82 9c3d 322b a03e de8b 083e 5a53 e03d
00000350: 451b d53c 0b58 75bc 8526 11be 4061 e63d
00000360: 1ea6 8e3e 405b a63e 9731 573e 381f 88be
00000370: f3f9 44bd ea9d 82be 1069 8fbc 5c55 a53d
00000380: 280d bcbd 97c0 0fbe de53 00bc e505 bb3d
00000390: 6e2b 85bd 7f09 1abe 81fe 61be 350d 0f3e
000003a0: ac6e 2fbd 620b 9bbd 8310 d3bd 58c8 d8be
000003b0: 2bc9 6ebe 0201 4c3e d324 df3c 4f83 8b3d
000003c0: f6c7 3ebe e6dd 39be 2fb3 0abe 1216 80be
000003d0: 9796 afbe 7d06 bcbd fb80 48be dfc8 10bd
000003e0: 7669 f2bd 70e1 373e bfaf eabc b67a 71be
000003f0: aa89 093e ab6c 003d 4b21 4a3c dddf 9bbd

conv_head.4.bias f4 [16]
-0.031717002 0.08154025 0.088195056 -0.03535628 -0.022461902 0.08014236 -0.022528715 0.076163
-0.043618817 0.18937658 0.002582336 0.023595154 0.15456876 -0.09812138 -0.08286547 0.07747405
00000000: b0e9 01bd 93fe a63d 9c9f b43d bfd1 10bd
00000010: 0602 b8bc ad21 a43d 248e b8bc 59fb 9b3d
00000020: a5a9 32bd efeb 413e 693c 293b a04a c13c
00000030: 4647 1e3e ddf3 c8bd 5fb5 a9bd b7aa 9e3d

linear1.weight f4 [128, 640]
-0.4342073 -0.3432594 -0.3579788 0.0073330817 0.03870158 0.027226292 -0.1394751 -0.19958182
-0.4533681 -0.21815921 -0.4519337 -0.30420867 -0.16106333 -0.36194575 -0.41712308 -0.36745983
-0.27852678 -0.095734656 -0.34177828 0.0074001267 0.0722092 -0.15649995 0.054137602 -0.1585446
-0.20351228 0.014792428 -0.080259494 0.058284983 0.06735875 0.012973599 -0.112648025 -0.12233367
-0.13079974 -0.083241224 -0.11183708 -0.10283788 -0.031065622 -0.23880415 -0.27236858 -0.11911237
-0.08021136 -0.44751528 -0.13735326 0.038202044 -0.07890244 -0.042813186 -0.24449213 -0.33670792
0.009373987 -0.37735897 0.23750852 -0.045545384 -0.106187455 0.065122046 0.24928118 0.16727678
-0.003755336 0.023730122 0.04806457 0.09578823 -0.10367563 -0.26536748 -0.15459661 -0.22922127
-0.47995692 -0.29442057 -0.2580822 -0.14490838 0.05105682 -0.057217542 0.19400619 -0.016378663
-0.12942053 0.050509058 0.12016084 0.16450058 -0.07180015 0.072485216 -0.048124123 -0.043189943
0.668915 0.44658044 -0.08085247 0.49536252 0.60782796 0.40259942 0.37411606 0.022810537
-0.015107107 0.5778291 -0.15413818 -0.105218895 0.10839242 -0.08448094 -0.44946104 -0.3246162
-0.0908042 -0.12255905 -0.2064605 -0.06603842 -0.11869352 -0.42260724 -0.33306092 -0.16022602
0.059813336 -0.2683538 -0.3635496 -0.26805407 -0.30427393 -0.3182797 0.036945276 0.056962263
0.12908238 0.010380673 -0.21605605 0.01341589 -0.18902533 0.009433318 0.06900904 0.081367284
0.5717991 0.24554035 0.32886425 0.2635367 -0.09049882 -0.10739103 0.06501884 0.43934938
-0.013945799 -0.30853188 0.3222182 -0.07827498 0.2758758 0.3014503 0.38246202 0.12014435
-0.12169397 -0.038602434 -0.1801186 -0.018010313 -0.07998844 -0.086682424 -0.28530675 -0.1685774
-0.12623262 0.07571443 0.017837599 0.03423446 -0.09691499 -0.1539722 -0.06797764 0.2092855
0.029442847 0.053900957 -0.09911183 -0.17721003 0.04186079 0.010312086 0.2673085 -0.19467068
-0.005469613 -0.41770792 -0.36529332 -0.0035905626 0.19881181 -0.056559417 -0.12621047 -0.012508406
0.16412288 -0.030860547 -0.19833282 -0.24178477 -0.2312022 -0.060112648 -0.34714 -0.11766735
-0.0016231734 0.081634395 -0.10932996 -0.03312147 -0.17921 -0.23359968 0.15828872 0.058686763
-0.04514508 -0.060176503 0.024519384 -0.23435047 -0.22256349 -0.40531403 -0.094226725 -0.18826814
-0.07875923 0.12182476 0.06671256 0.018018873 0.33591393 0.087240726 -0.08168352 -0.400242
-0.23922408 -0.27532712 -0.051646106 -0.10085666 -0.11626942 -0.03716203 -0.35635686 -0.26257738
-0.24828014 -0.14234523 -0.19035731 -0.15804142 -0.25454566 -0.10656905 -0.0032959583 -0.08987742
-0.16542964 -0.014969925 -0.09278267 0.09292317 -0.25419 -0.106134854 0.1079963 -0.15953554
-0.22218561 -0.30832604 -0.20888545 0.1262351 0.17503448 0.15067758 0.34436333 -0.040972635
0.021826621 -0.30448875 -0.27644116 -0.17646894 -0.10910241 0.041570753 0.2170691 0.09286802
-0.44916585 -0.25660947 -0.2728708 -0.29085666 -0.31574205 -0.47545043 -0.4412974 -0.5485505
-0.46287367 -0.6236411 -0.3494855 -0.16854659 0.023523744 0.13975148 0.053644393 0.2792247
00000000: 6b50 debe b2bf afbe ff48 b7be 594a f03b
00000010: 8c85 1e3d ac09 df3c 90d2 0ebe 2d5f 4cbe
00000020: dd1f e8be 2165 5fbe db63 e7be 3dc1 9bbe
00000030: c9ed 24be f450 b9be 2891 d5be b223 bcbe
00000040: 109b 8ebe 8810 c4bd 90fd aebe c37c f23b
00000050: 6be2 933d 8641 20be 64bf 5d3d 8459 22be
00000060: 8665 50be f15b 723c 175f a4bd 3cbc 6e3d
00000070: 62f3 893d 388f 543c 02b4 e6bd 138a fabd
00000080: 5ef0 05be 607a aabd d70a e5bd ab9c d2bd
00000090: 557d febc 1389 74be e573 8bbe 30f1 f3bd
000000a0: da45 a4bd b920 e5be 55a6 0cbe bf79 1c3d
000000b0: 9a97 a1bd e15c 2fbd 255c 7abe fb64 acbe
000000c0: 5a95 193c 3235 c1be 6f35 733e cc8d 3abd
000000d0: cf78 d9bd b55e 853d 9143 7f3e 9b4a 2b3e
000000e0: 151c 76bb ac65 c23c 5bdf 443d 9f2c c43d
000000f0: e453 d4bd 3fde 87be 934e 1ebe fbb8 6abe
00000100: eabc f5be 4bbe 96be 5a23 84be dd62 14be
00000110: f520 513d f15c 6abd 8fa9 463e 8c2c 86bc
00000120: d186 04be 96e2 4e3d e316 f63d d772 283e
00000130: f50b 93bd 2173 943d cd1d 45bd f0e7 30bd
00000140: 033e 2b3f 31a6 e43e fb95 a5bd 28a0 fd3e
00000150: 9d9a 1b3f 8321 ce3e 248c bf3e 2add ba3c
00000160: cd83 77bc 9cec 133f 66d6 1dbe 017d d7bd
00000170: d8fc dd3d 5804 adbd c21f e6be 1834 a6be
00000180: 8df7 b9bd 3d00 fbbd 626a 53be 273f 87bd
00000190: 9715 f3bd fa5f d8be f686 aabe 4a12 24be
000001a0: d4fe 743d ab65 89be 2c23 babe 623e 89be
000001b0: cbc9 9bbe 8ff5 a2be ee53 173d 4351 693d
000001c0: 2c2e 043e b313 2a3c cc3d 5dbe 52ce 5b3c
000001d0: db8f 41be 348e 1a3c 9d54 8d3d e4a3 a63d
000001e0: 6d61 123f ee6e 7b3e e560 a83e 48ee 863e
000001f0: 7257 b9bd d4ef dbbd 9928 853d 67f2 e03e
00000200: ec7c 64bc e4f7 9dbe c9f9 a43e a24e a0bd
00000210: 983f 8d3e b257 9a3e 10d2 c33e 3e0e f63d
00000220: b03a f9bd 961d 1ebd 0371 38be 5d8a 93bc
00000230: fbd0 a3bd 8e86 b1bd ba13 92be 8e9f 2cbe
00000240: 2043 01be 2b10 9b3d 2820 923c 6f39 0c3d
00000250: 5e7b c6bd e3aa 1dbe dc37 8bbd f04e 563e
00000260: 2032 f13c 40c7 5c3d 25fb cabd 8c76 35be
00000270: 3876 2b3d 06f4 283c a9dc 883e c057 47be
00000280: 703a b3bb d0dd d5be ba07 bbbe a54f 6bbb
00000290: 5395 4b3e d9aa 67bd 513d 01be 0ff0 4cbc
000002a0: d40f 283e 42cf fcbc c217 4bbe 6d96 77be
000002b0: 45c0 6cbe ae38 76bd 56bc b1be 94fb f0bd
000002c0: a9c0 d4ba ef2f a73d 63e8 dfbd 61aa 07bd
000002d0: d482 37be c134 6fbe 7016 223e 8861 703d
000002e0: 0cea 38bd a37b 76bd e0dc c83c 92f9 6fbe
000002f0: afe7 63be 5285 cfbe f1f9 c0bd 5dc9 40be
00000300: 854c a1bd 437f f93d 98a0 883d 519c 933c
00000310: e9fc ab3e 44ab b23d b049 a7bd 85ec ccbe
00000320: 28f7 74be adf7 8cbe de8a 53bd f08d cebd
00000330: a91e eebd 3637 18bd 6874 b6be 8b70 86be
00000340: 263d 7ebe f3c2 11be 07ed 42be 9cd5 21be
00000350: cf53 82be e040 dabd 0101 58bb a711 b8bd
00000360: 6366 29be 6b44 75bc d704 bebd 814e be3d
00000370: 3125 82be 3b5d d9bd 2a2d dd3d 495d 23be
00000380: a084 63be e9dc 9dbe 11e6 55be c643 013e
00000390: 3d3c 333e 394b 1a3e 6450 b03e ecd2 27bd
000003a0: becd b23c f3e5 9bbe b289 8dbe 46b4 34be
000003b0: 1671 dfbd 1846 2a3d 5d47 5e3e 9731 be3d
000003c0: 11f9 e5be 5162 83be b9b5 8bbe 2aeb 94be
000003d0: f1a8 a1be 3d6e f3be bcf1 e1be ce6d 0cbf
000003e0: c7fd ecbe f1a6 1fbf c3ef b2be 7a97 2cbe
000003f0: deb4 c03c 031b 0f3e 39ba 5b3d 8af6 8e3e

linear1.bias f4 [128]
0.055543687 -0.024493713 -0.07215049 -0.104499124 -0.08232588 0.04749782 0.25863576 -0.033052634
0.4897534 0.012122533 0.19339955 -0.07709122 0.07497743 -0.10053526 -0.039681107 0.1433955
-0.006892245 -0.11186699 0.07221505 0.26409596 0.20113309 -0.0516001 0.035216086 0.02134717
0.52068865 -0.08043035 0.018823322 0.17168961 0.085096955 -0.16407555 -0.044718858 0.029880097
0.14781696 0.24410774 0.0058665015 -0.002820524 0.24919268 -0.41414514 0.4301563 0.13309662
-0.003649032 -0.36093372 0.19568022 -0.015407176 -0.24308997 -0.016308887 0.16395836 -0.15875767
-0.2031873 -0.11632296 0.054628503 -0.10136104 -0.19035423 -0.06695293 0.20196548 0.13175747
-0.0573402 -0.02758707 0.014081807 0.25316587 0.37976164 -0.087080374 0.2509998 0.011336771
0.04717332 0.51654935 -0.018894274 -0.03013195 -0.16560598 -0.46456063 0.13286483 0.20994881
0.075515315 0.041330528 -0.5101733 -0.0016811452 0.19059421 0.35368988 -0.18531148 0.10889262
0.11395838 -0.16726017 -0.27334055 0.43508133 -0.5249266 -0.089066125 0.007198872 -0.062342364
0.050014343 -0.055710424 0.022887066 0.15180658 0.08566756 -0.066841304 -0.1305361 0.10299282
-0.04770277 -0.4619961 0.035784185 -0.025148112 -0.14190511 0.0046629496 -0.21106668 0.11411708
0.06517048 0.10792688 0.4111502 -0.11044265 -0.09659976 0.109290764 0.24450904 0.016411817
-0.021738429 0.015471486 -0.11385074 0.18188801 0.1384259 0.20166376 -0.08942247 -0.082597114
0.15241742 -0.06859163 -0.11319132 -0.339746 -0.055029407 0.23081893 -0.006106832 0.05799938
00000000: c781 633d 0aa7 c8bc a3c3 93bd a303 d6bd
00000010: 799a a8bd 138d 423d e86b 843e 3362 07bd
00000020: f5c0 fa3e 979d 463c 880a 463e 00e2 9dbd
00000030: c48d 993d 6ee5 cdbd a888 22bd 45d6 123e
00000040: 57d8 e1bb 851a e5bd 7ce5 933d 9637 873e
00000050: d5f5 4d3e a05a 53bd be3e 103d 43e0 ae3c
00000060: da4b 053f abb8 a4bd 5e33 9a3c 67cf 2f3e
00000070: 5047 ae3d 6c03 28be 1f2b 37bd 1bc7 f43c
00000080: 545d 173e 61f7 793e c83b c03b 8ad8 38bb
00000090: 5e2c 7f3e d50a d4be 723d dc3e 7b4a 083e
000000a0: 9924 6fbb 4ecc b8be 6560 483e 616e 7cbc
000000b0: 94ec 78be 379a 85bc b3e4 273e 5f91 22be
000000c0: 5510 50be bb3a eebd 23c2 5f3d 6096 cfbd
000000d0: 38ec 42be 9e1e 89bd 0ad0 4e3e 6eeb 063e
000000e0: 8fdd 6abd 47fe e1bc 61b7 663c f59e 813e
000000f0: 1e70 c23e 3257 b2bd 0c83 803e ddbd 393c
00000100: d038 413d 943c 043f 2ac8 9abc 47d7 f6bc
00000110: 9d94 29be e4da edbe b80d 083e d2fc 563e
00000120: c6a7 9a3d 334a 293d b89a 02bf df59 dcba
00000130: 212b 433e d716 b53e 4bc2 3dbe 1803 df3d
00000140: 0363 e93d 4046 2bbe 4bf3 8bbe fbc2 de3e
00000150: 9761 06bf 4d68 b6bd 84e4 eb3b b55a 7fbd
00000160: d7db 4c3d 9d30 64bd a87d bb3c 2f73 1b3e
00000170: 7972 af3d 18e4 88bd 41ab 05be e6ed d23d
00000180: fb63 43bd c18a ecbe 7092 123d 6a03 cebc
00000190: 934f 11be a8cb 983b dd21 58be 37b6 e93d
000001a0: 1a78 853d c508 dd3d 4782 d23e c22f e2bd
000001b0: 18d6 c5bd d6d3 df3d 9460 7a3e 1372 863c
000001c0: ca14 b2bc 1e7c 7d3c 942a e9bd da40 3a3e
000001d0: 85bf 0d3e f280 4e3e 2123 b7bd ad28 a9bd
000001e0: 5013 1c3e c579 8cbd dad0 e7bd 30f3 adbe
000001f0: 8466 61bd cc5b 6c3e d21b c8bb c290 6d3d

gru.weight_ih f4 [384, 128]
-0.2140058 0.12528591 0.011202363 -0.047422294 0.019124703 0.10223606 -0.052199483 0.09766093
0.036111206 -0.057639435 0.2418035 0.034158032 0.037986234 0.018810946 0.006467156 -0.19106632
-0.063342996 -0.003708136 -0.24160178 -0.091171205 0.18083836 0.046374183 0.0467064 0.068268195
0.21975756 0.039305244 0.07597797 0.106685355 0.07166283 0.12328282 0.00649954 -0.07407839
-0.002220681 -0.019529693 0.15277725 -0.080107555 -0.08372491 0.04181919 0.22573899 0.089317374
-0.09129192 -0.04698243 0.23613197 -0.05706363 -0.10167332 -0.11480348 -0.014339457 -0.093399204
0.023996422 -0.03744572 -0.0414241 -0.07932157 0.023681851 -0.14784926 0.0061145728 -0.028654292
-0.1434434 -0.19512622 -0.09454129 0.33259037 0.18429232 0.046376605 0.03803829 0.11823899
0.009959226 0.19863008 0.11821485 -0.12032224 -0.12494607 0.1131948 0.056370147 0.02954268
-0.25739372 -0.17889607 -0.15819503 -0.13077778 0.016342713 0.088033 -0.004608534 0.052458365
0.021473607 -0.05208256 -0.06482307 0.22357836 -0.15413591 0.11276984 -0.05487343 0.015314795
-0.018833904 -0.031481795 -0.009410905 0.13561536 0.0019806693 0.035463 0.024499623 0.10484757
-0.12148328 -0.058560126 0.015946778 0.007170455 0.028494341 0.032622807 -0.073114485 -0.04490652
0.07716122 0.09713862 -0.010721746 -0.032081734 -0.23513453 -0.047568727 0.29670575 -0.11476902
-0.114696294 -0.008530252 0.08612283 -0.11343589 0.08124738 0.008648576 -0.015523536 -0.002798586
0.117150776 -0.040535845 -0.051032327 -0.10486237 -0.061058756 0.25775176 -0.13803501 0.013138639
0.07847204 0.078810744 -0.024226496 -0.04291451 -0.02243256 0.18263064 0.086035326 0.10402613
0.15084516 0.01173102 -0.04449782 0.13389012 0.07752646 -0.082465105 0.09359817 0.013011392
0.031695046 0.10309766 0.12361287 -0.009763704 0.08217676 0.25420427 0.023828808 0.05730687
0.13374808 0.17225288 0.06619094 -0.022558777 0.061481226 0.023253517 -0.03326166 -0.0026829876
0.09194224 0.052804213 0.14417344 -0.03279882 0.09591966 0.0010367221 0.0364412 0.15945101
0.13566521 -0.078417 0.10921366 0.040615626 0.06842848 0.032153428 0.08306421 0.118814744
0.09706021 0.03477618 0.12289219 0.12667966 0.09437986 0.086553924 0.08034216 0.019715276
0.030156385 0.05635588 0.014407625 0.105937034 0.13608736 0.04576138 0.06369448 -0.007023546
-0.011350838 0.18454741 0.041488055 0.12104778 0.10367909 -0.046922583 0.054441728 -0.009461976
0.06478375 0.07310148 0.12005852 -0.036924284 0.05336367 0.12906416 0.015328238 0.018150909
0.025685923 -0.04112307 -0.016404238 0.13755962 0.0369714 0.024867728 -0.05426408 0.15471199
-0.043604743 -0.102327384 0.107573815 0.023286914 0.10180205 0.027436454 0.06399989 0.027855793
0.052712426 0.0139492685 0.17647491 0.016436012 0.047400426 -0.025924873 -0.005232331 0.13300619
0.14743033 -0.008916804 0.18880235 0.0837894 0.044040367 0.098407306 -0.040839843 -0.019510392
-0.08949848 0.07660885 0.045482922 0.11042622 0.112230465 0.09512944 0.041760523 0.018162822
-0.018056184 -0.021219553 -0.014967244 -0.01704513 -0.01998079 0.08254365 0.0036221931 -0.07354292
00000000: 5624 5bbe f34a 003e 1e8a 373c e13d 42bd
00000010: 69ab 9c3c 2461 d13d 20cf 55bd 7402 c83d
00000020: 58e9 133d 5417 6cbd 569b 773e 4be9 0b3d
00000030: 7497 1b3d 6a19 9a3c 70ea d33b e4a6 43be
00000040: f9b9 81bd 3304 73bb 7566 77be f8b7 babd
00000050: b12d 393e dbf2 3d3d 364f 3f3d 32d0 8b3d
00000060: 2008 613e 89fe 203d 579a 9b3d da7d da3d
00000070: f6c3 923d b47b fc3d 18fa d43b 69b6 97bd
00000080: d888 11bb bcfc 9fbc a471 1c3e 6e0f a4bd
00000090: f777 abbd 994a 2b3d 1f28 673e 07ec b63d
000000a0: 42f7 babd a670 40bd 94cc 713e 8ebb 69bd
000000b0: 1a3a d0bd 161e ebbd 0bf0 6abc 1548 bfbd
000000c0: 2594 c43c af60 19bd 51ac 29bd 5973 a2bd
000000d0: 7100 c23c cc65 17be c15c c83b 68bc eabc
000000e0: d4e2 12be 2bcf 47be dd9e c1bd 4949 aa3e
000000f0: 20b7 3c3e 65f5 3d3d 0ace 1b3d 4927 f23d
00000100: 052c 233c af65 4b3e a11a f23d 826b f6bd
00000110: bae3 ffbd add2 e73d 62e4 663d 7e03 f23c
00000120: 1cc9 83be 8830 37be e1fd 21be 9cea 05be
00000130: 27e1 853c a54a b43d 2f03 97bb 95de 563d
00000140: 6be9 af3c 8654 55bd f5c1 84bd baf1 643e
00000150: ced5 1dbe e0f3 e63d f6c2 60bd e8ea 7a3c
00000160: 8f49 9abc 0ef3 00bd 3230 1abc c1de 0a3e
00000170: 1ece 013b a741 113d 6fb3 c83c 53ba d63d
00000180: 3acc f8bd bedc 6fbd d1a2 823c 23f6 ea3b
00000190: f76c e93c 7e9f 053d 0cbd 95bd e6ef 37bd
000001a0: b406 9e3d 9df0 c63d 43aa 2fbc 2368 03bd
000001b0: 1bc7 70be 6dd7 42bd d1e9 973e 050c ebbd
000001c0: e4e5 eabd 78c2 0bbc 2b61 b03d 1351 e8bd
000001d0: 0765 a63d c2b2 0d3c 6e56 7ebc 7b68 37bb
000001e0: bfec ef3d ea08 26bd 4607 51bd 15c2 d6bd
000001f0: bf18 7abd 0af8 833e 0d59 0dbe 7243 573c
00000200: f3b5 a03d 8767 a13d a576 c6bc 20c7 2fbd
00000210: 7dc4 b7bc 8703 3b3e 4a33 b03d a70b d53d
00000220: 2777 1a3e 7733 403c 5943 36bd 7e1a 093e
00000230: 31c6 9e3d 77e3 a8bd 66b0 bf3d bc2d 553c
00000240: aad2 013d de24 d33d bf28 fd3d f1f7 1fbc
00000250: 4a4c a83d 1027 823e a234 c33c 9cba 6a3d
00000260: 42f5 083e 0f63 303e 1e8f 873d 2fcd b8bc
00000270: bdd3 7b3d 297e be3c 613d 08bd 10d5 2fbb
00000280: 374c bc3d 3b49 583d 34a2 133e 0e58 06bd
00000290: 8771 c43d 9fe2 873a 5e43 153d 2047 233e
000002a0: d2eb 0a3e 1899 a0bd 69ab df3d 925c 263d
000002b0: 3b24 8c3d 50b3 033d 921d aa3d 2555 f33d
000002c0: 81c7 c63d 7871 0e3d e7ae fb3d 50b8 013e
000002d0: 3a4a c13d 2f43 b13d 6e8a a43d ee81 a13c
000002e0: 860a f73c 6cd5 663d f60d 6c3c 84f5 d83d
000002f0: 7c5a 0b3e 4970 3b3d 4072 823d c625 e6bb
00000300: ddf8 39bc fff9 3c3e 61ef 293d e6e7 f73d
00000310: b455 d43d e531 40bd 4afe 5e3d 6706 1bbc
00000320: 58ad 843d 3bb6 953d 3ee1 f53d eb3d 17bd
00000330: dd93 5a3d 6529 043e 4a23 7b3c 37b1 943c
00000340: 496b d23c aa70 28bd 2e62 86bc 6edc 0c3e
00000350: 536f 173d 68b7 cb3c 0344 5ebd d26c 1e3e
00000360: e39a 32bd 0591 d1bd a94f dc3d 33c4 be3c
00000370: 987d d03d 6ac2 e03c 6012 833d d531 e43c
00000380: fce8 573d 798b 643c d7b5 343e d1a4 863c
00000390: f326 423d 6660 d4bc f973 abbb c632 083e
000003a0: faf7 163e c917 12bc 6755 413e c799 ab3d
000003b0: ac63 343d c589 c93d ae47 27bd 42d4 9fbc
000003c0: fb4a b7bd 1ae5 9c3d 4d4c 3a3d 2427 e23d
000003d0: 16d9 e53d 39d3 c23d 150d 2b3d 33ca 943c
000003e0: 90ea 93bc a1d4 adbc 2c39 75bc 3aa2 8bbc
000003f0: c1ae a3bc a50c a93d 5162 6d3b ac9d 96bd

gru.weight_hh f4 [384, 128]
0.46940276 0.1170141 -0.17940213 -0.13021828 0.092465214 -0.2558861 -0.05021605 -0.078304216
-0.18079932 -0.16141896 0.27784863 0.029519392 -0.20786442 -0.12020279 -0.13176848 0.07680894
-0.06294462 0.10061618 0.34685552 0.08537764 -0.027875612 0.0011924764 -0.058566496 0.20365465
-0.19895926 0.2252179 0.039581742 0.1346759 -0.043240935 -0.092400365 0.17298175 0.051559173
-0.06579034 0.097899474 0.060718555 0.020982804 0.06157002 0.08287482 0.06260438 0.2869114
-0.024766335 -0.044201635 0.10518599 -0.03500825 -0.24911232 0.33918715 -0.11118714 0.094491184
0.05503832 0.07145726 -0.16033635 0.078132436 0.024896592 -0.2789054 0.1815003 0.10660259
0.038552575 0.12071506 0.26428652 0.056909002 0.24844244 -0.15261674 -0.026159272 -0.08721362
0.0058535677 -0.035123143 -0.0026165815 -0.15847048 -0.15344584 0.0055229776 0.15853748 0.37356544
-0.32037982 -0.3029469 0.14043522 0.18678321 0.03549537 0.050186116 0.03510224 0.054678366
0.04020798 0.09159272 0.23553205 0.023401225 0.027594581 0.0768006 0.08660054 -0.00857454
0.12233747 0.043572776 -0.15956584 0.008620533 -0.0789184 -0.17874457 -0.04090625 -0.15480769
-0.10302717 -0.07598978 0.009864512 -0.07381422 0.09445744 0.17919484 0.037267894 -0.22271776
0.13913459 -0.09107597 0.24482968 -0.0870804 0.04404079 -0.006163598 -0.262162 0.42747277
0.086074695 -0.28579623 0.025243212 0.023792783 -0.08750841 0.025909718 -0.23323034 -0.12909982
0.022023115 -0.0043455637 -0.10809067 -0.0010219648 -0.12935403 0.06172152 -0.0144277625 0.2149786
-0.031678546 -0.0073523168 0.06860531 -0.13896163 0.06499236 0.013822566 -0.19920248 0.23369464
0.069845125 0.09400485 0.021705529 -0.10770575 -0.094948836 0.058244713 0.065845445 -0.042842753
0.20700388 0.055401288 0.07324934 0.07745746 -0.10599177 -0.0787322 -0.12758227 -0.14651766
-0.12851462 -0.02220146 -0.004167783 0.11663911 -0.15999575 0.12454763 -0.046682008 -0.004810977
-0.011189533 0.080370925 0.034849655 0.021833796 -0.04564453 0.088113084 0.18125288 -0.029997401
0.015665695 0.062265947 -0.0044982675 -0.121917725 -0.042996824 0.06522435 -0.037749473 0.12935364
0.08146396 -0.17763367 0.11071389 0.1623008 -0.20232208 -0.003196512 -0.083882086 -0.07093732
0.030201443 0.09143844 -0.043699786 -0.079689026 0.09229185 -0.040336255 -0.02411151 0.050121393
-0.11940751 0.06331269 0.060612917 -0.08019063 0.042125978 -0.16537057 -0.07901208 -0.0024553367
-0.015858684 0.06182752 -0.040448904 0.051430788 0.17034388 0.031211015 -0.20484257 -0.0072861454
-0.10659886 0.080222 -0.079699285 0.1603203 -0.24490516 0.17765051 -0.057676908 -0.06668377
0.038050648 0.16460638 0.025271125 0.03140595 -0.04121018 0.05800139 0.023207992 -0.020485925
0.020052547 -0.123905875 0.103493005 0.057049472 -0.13965589 0.114110075 0.15712251 0.067624025
-0.042638667 -0.011201186 -0.012559507 -0.18032566 -0.09923426 0.017038021 -0.032816876 -0.18333615
-0.04002638 -0.006403892 -0.15707535 0.019182628 0.115395926 0.032745186 0.06732616 0.006163048
0.18546143 -0.16077241 0.11972428 -0.18803269 -0.026913881 0.15247482 0.11254936 -0.02364587
00000000: 8f55 f03e 17a5 ef3d 31b5 37be f157 05be
00000010: 675e bd3d 8103 83be 58af 4dbd f65d a0bd
00000020: 7523 39be 034b 25be 2d42 8e3e a7d2 f13c
00000030: 69da 54be e12c f6bd 51ee 06be 014e 9d3d
00000040: 1ce9 80bd db0f ce3d 0c97 b13e 79da ae3d
00000050: 655b e4bc de4c 9c3a 6ce3 6fbd d88a 503e
00000060: fabb 4bbe 859f 663e 7720 223d 7be8 093e
00000070: 681d 31bd 673c bdbd 2122 313e b62f 533d
00000080: 16bd 86bd 857f c83d 05b4 783d 21e4 ab3c
00000090: d830 7c3d 46ba a93d ba36 803d 0de6 923e
000000a0: c5e2 cabc c60c 35bd c16b d73d d064 0fbd
000000b0: 4d17 7fbe f0a9 ad3e 15b6 e3bd 9884 c13d
000000c0: dd6f 613d 2f58 923d 362f 24be e603 a03d
000000d0: f0f3 cb3c b0cc 8ebe 37db 393e 7552 da3d
000000e0: 4ee9 1d3d 7539 f73d 9050 873e 6a19 693d
000000f0: b267 7e3e 9047 1cbe f84b d6bc 0e9d b2bd
00000100: 49cf bf3b 49dd 0fbd f47a 2bbb 1646 22be
00000110: e820 1dbe 18fa b43b a657 223e f843 bf3e
00000120: d308 a4be db1b 9bbe 40ce 0f3e 1944 3f3e
00000130: 9863 113d f58f 4d3d 5ec7 0f3d 6cf6 5f3d
00000140: 1fb1 243d f794 bb3d 502f 713e edb3 bf3c
00000150: 080e e23c a249 9d3d a05b b13d 3a7c 0cbc
00000160: 118c fa3d 5e79 323d 3a65 23be 233d 0d3c
00000170: f89f a1bd d108 37be 508d 27bd e885 1ebe
00000180: e9ff d2bd 88a0 9bbd c39e 213c e92b 97bd
00000190: e772 c13d da7e 373e 38a6 183d 2010 64be
000001a0: 4c79 0e3e 0a86 babd a2b4 7a3e 3557 b2bd
000001b0: 1e64 343d 02f8 c9bb 193a 86be b6dd da3e
000001c0: ee47 b03d e253 92be daca ce3c 15e9 c23c
000001d0: 9c37 b3bd 9e40 d43c efd3 6ebe be32 04be
000001e0: d269 b43c 3b65 8ebb a45e ddbd 73f3 85ba
000001f0: 6275 04be b4cf 7c3d 6c62 6cbc 5a23 5c3e
00000200: 5dc1 01bd b4eb f0bb f180 8c3d f54b 0ebe
00000210: b71a 853d 0b78 623c bcfb 4bbe a64d 6f3e
00000220: f60a 8f3d 9d85 c03d cbcf b13c d594 dcbd
00000230: 8974 c2bd 0292 6e3d fad9 863d e27b 2fbd
00000240: d3f8 533e 76ec 623d c003 963d 04a2 9e3d
00000250: 3712 d9bd 593e a1bd eda4 02be ba08 16be
00000260: 5699 03be d6df b5bc e691 88bb 7ce0 ee3d
00000270: edd5 23be d412 ff3d a235 3fbd 66a5 9dbb
00000280: 4e54 37bc 8399 a43d 83be 0e3d cadc b23c
00000290: c2f5 3abd a274 b43d 5b9a 393e 1cbd f5bc
000002a0: 5855 803c 940a 7f3d 3466 93bb 00b0 f9bd
000002b0: 701d 30bd 5894 853d 319f 1abd 4875 043e
000002c0: 94d6 a63d 9ae5 35be f7bd e23d 2e32 263e
000002d0: 852d 4fbe 937c 51bb 5fca abbd 9647 91bd
000002e0: 0469 f73c 1444 bb3d 8cfe 32bd 0034 a3bd
000002f0: 8203 bd3d a137 25bd 8085 c5bc 174c 4d3d
00000300: ed8b f4bd 15aa 813d 4045 783d fc3a a4bd
00000310: 4a8c 2c3d e756 29be 16d1 a1bd b7e9 20bb
00000320: 12ea 81bc db3e 7d3d c0ad 25bd 17a9 523d
00000330: a06e 2e3e 3eae ff3c 40c2 51be 9ec0 eebb
00000340: 8150 dabd 6f4b a43d 6139 a3bd 012b 243e
00000350: 6bc8 7abe 04ea 353e 9f3e 6cbd 8091 88bd
00000360: ffda 1b3d 938e 283e 6405 cf3c 87a3 003d
00000370: 01cc 28bd de92 6d3d b01e be3c 19d2 a7bc
00000380: 3d45 a43c 5dc2 fdbd 24f4 d33d b5ac 693d
00000390: f401 0fbe 8bb2 e93d b9e4 203e 777e 8a3d
000003a0: e2a5 2ebd 2e85 37bc 64c6 4dbc 4aa7 38be
000003b0: 553b cbbd 5293 8b3c fd6a 06bd 79bc 3bbe
000003c0: b4f2 23bd bdd7 d1bb 5cd8 20be e324 9d3c
000003d0: b354 ec3d d11f 063d 4ce2 893d 65f3 c93b
000003e0: 9ae9 3d3e 86a1 24be 0132 f53d a48b 40be
000003f0: 807a dcbc 5c22 1c3e 4780 e63d fcb4 c1bc

gru.bias_ih f4 [384]
0.016013226 0.15599431 -0.06752441 0.0830339 0.0610211 -0.066902235 0.07850855 0.10471969
0.06761792 0.12129308 0.13691592 -0.11478291 0.11537528 0.09743309 0.017626785 -0.04141069
0.06379971 -0.052948914 -0.028422287 0.05541597 0.06911311 0.07632972 -0.15456519 0.02732883
-0.066588804 0.09646523 -0.038362227 0.100431055 0.07055782 0.05000402 0.058027603 0.04383786
0.04262058 0.09990545 -0.12534042 -0.11565905 0.075185955 0.059345517 0.06950861 0.014672506
-0.15504876 0.032301772 0.09857482 0.06681363 -0.07022037 0.06530004 -0.06120489 0.05013782
0.117666416 0.06432787 -0.057052437 0.083158195 0.060232054 -0.12566786 -0.049169905 0.0756641
-0.045814104 -0.14262892 -0.09824764 -0.075613186 -0.06822497 -0.061821464 0.03598519 0.0071838023
0.033255644 0.04547181 -0.07804163 -0.04781953 -0.14367159 0.12711549 0.028551072 -0.081588976
0.06456509 -0.05614096 0.16066411 -0.08374793 0.07523445 -0.110932164 0.07299097 0.12737732
-0.0023418919 -0.058453962 0.06278894 0.07979464 0.06603285 0.06735738 0.04922716 -0.078767784
0.07583252 0.06683202 0.03448622 -0.12794463 -0.07705889 0.089651555 0.029948827 -0.0036500327
0.059260897 0.015473552 -0.04692701 0.0147344135 0.064057745 0.03092212 0.07271083 0.040692512
-0.12936305 -0.09474537 -0.043837678 0.08075296 -0.18769096 0.1202387 0.14609607 -0.037441354
-0.045550864 0.08720969 0.0596374 -0.014870879 0.057744313 0.02114476 -0.0795 -0.19075298
0.05928272 0.07562928 0.10069132 0.027917821 0.06061898 -0.108976424 -0.00335647 0.13332056
0.114635035 0.20279337 0.19297828 -0.28782386 -0.14700702 0.19954064 -0.33765647 -0.3118641
0.26676255 -0.17836392 0.016221266 -0.032927576 -0.20279501 0.032661464 -0.10917364 -0.03232484
-0.34278446 -0.08348906 -0.22971925 -0.22106978 -0.284171 -0.19951484 -0.18764786 0.099459626
-0.27529764 0.15886211 -0.16987094 -0.22003989 0.011434103 0.2613041 0.06994833 0.3187445
-0.30120876 -0.17970586 -0.13586836 0.47598425 0.36874342 -0.24406344 -0.28067255 -0.291582
0.1384876 -0.14305535 0.13547926 -0.26121053 -0.070636205 -0.31172338 -0.15078151 -0.022926506
-0.2908397 -0.26828754 -0.2396524 -0.30006534 -0.26486456 -0.05205277 -0.12598903 0.08587259
0.2609473 0.30301833 -0.12525226 -0.10203776 0.24083993 -0.20519863 0.27688256 -0.13709816
0.08489748 -0.22341985 0.16990085 0.22931342 0.19030684 -0.22482552 -0.17101394 0.15245788
0.15049346 0.003980423 -0.18228818 0.12265953 -0.22817303 0.32047427 -0.29273802 -0.09904183
-0.20473363 0.19347422 -0.07063094 -0.29066166 -0.25855803 -0.27635878 -0.060066216 0.2703802
0.06892426 -0.2700111 -0.05028994 0.20860966 -0.0039882693 -0.2872002 -0.29059276 -0.050245043
-0.24977185 -0.29972777 -0.008104918 0.068129726 -0.3016896 -0.06408644 -0.2915711 -0.17496046
0.25165686 -0.054772813 0.22301102 -0.2999106 0.06860403 -0.029342467 -0.40977427 -0.20076618
-0.2115053 0.0075019333 -0.31086993 -0.18392219 0.12869197 0.24807353 -0.01798388 -0.088949
0.11959673 -0.2930624 -0.19243313 -0.28369835 -0.013447071 -0.23709881 0.06830646 -0.15692393
00000000: 2b2e 833c f9bc 1f3e 3d4a 8abd ad0d aa3d
00000010: 43f1 793d 0a04 89bd 17c9 a03d 4777 d63d
00000020: 447b 8a3d 8268 f83d b033 0c3e 4d13 ebbd
00000030: e049 ec3d 008b c73d 0c66 903c 419e 29bd
00000040: 6ca9 823d f6e0 58bd dbd5 e8bc dbfb 623d
00000050: 2d8b 8d3d c252 9c3d 5646 1ebe b6e0 df3c
00000060: b65f 88bd 908f c53d b621 1dbd ccae cd3d
00000070: 9e80 903d 04d1 4c3d 5aae 6d3d 548f 333d
00000080: eb92 2e3d 3b9b cc3d 3d59 00be a7de ecbd
00000090: 18fb 993d 4914 733d 885a 8e3d f364 703c
000000a0: 1ac5 1ebe dd4e 043d 98e1 c93d 96d5 883d
000000b0: b3cf 8fbd 07bc 853d fbb1 7abd 515d 4d3d
000000c0: 17fb f03d 55be 833d d1af 69bd d84e aa3d
000000d0: e3b5 763d 13af 00be 6266 49bd c8f5 9a3d
000000e0: 92a7 3bbd 510d 12be 0f36 c9bd 16db 9abd
000000f0: 88b9 8bbd 8138 7dbd 3565 133d 1a66 eb3b
00000100: 1237 083d a640 3a3d 4ad4 9fbd 69de 43bd
00000110: a51e 13be 902a 023e f0e3 e93c 1f18 a7bd
00000120: b43a 843d 10f4 65bd 2285 243e 0984 abbd
00000130: 8514 9a3d 6730 e3bd 4a7c 953d 336f 023e
00000140: 6d7a 19bb 6c6d 6fbd 7d97 803d 5f6b a33d
00000150: 3b3c 873d abf2 893d 6ba2 493d 0151 a1bd
00000160: 154e 9b3d 3adf 883d 6c41 0d3d eb03 03be
00000170: 0dd1 9dbd 3c9b b73d 3e57 f53c 6335 6fbb
00000180: 8ebb 723d c884 7d3c 8936 40bd 9c68 713c
00000190: b530 833d 6350 fd3c 6ae9 943d 31ad 263d
000001a0: bf77 04be dc09 c2bd 238f 33bd cf61 a53d
000001b0: 0f32 40be b53f f63d 359a 153e 1b5c 19bd
000001c0: 8b93 3abd fe9a b23d 5946 743d fda4 73bc
000001d0: 4d85 6c3d c737 ad3c e5d0 a2bd c054 43be
000001e0: 70d2 723d 86e3 9a3d 4037 ce3d eab3 e43c
000001f0: 9c4b 783d 082f dfbd 39f8 5bbb 2f85 083e
00000200: c6c5 ea3d 11a9 4f3e 199c 453e a65d 93be
00000210: 0289 16be 6254 4c3e 4fe1 acbe a7ac 9fbe
00000220: 1a95 883e 08a5 36be 76e2 843c 11df 06bd
00000230: 7fa9 4fbe 07c8 053d 6e96 dfbd 0d67 04bd
00000240: 7281 afbe 50fc aabd 863b 6bbe 1e60 62be
00000250: dc7e 91be 9e4d 4cbe c326 40be 7db1 cb3d
00000260: d0f3 8cbe c0ac 223e a6f2 2dbe 2352 61be
00000270: 1b56 3b3c a7c9 853e 1241 8f3d 7b32 a33e
00000280: 0938 9abe d004 38be 1321 0bbe 35b4 f33e
00000290: f0cb bc3e c4eb 79be 50b4 8fbe 3c4a 95be
000002a0: b2cf 0d3e 1a7d 12be 13bb 0a3e 63bd 85be
000002b0: b7a9 90bd 359a 9fbe 7866 1abe 5ed0 bbbc
000002c0: f1e8 94be fc5c 89be 7067 75be 2aa2 99be
000002d0: 549c 87be 4935 55bd 4503 01be f8dd af3d
000002e0: e29a 853e 3825 9b3e 2142 00be 2cf9 d0bd
000002f0: be9e 763e 971f 52be 8dc3 8d3e 7663 0cbe
00000300: bbde ad3d 2cc8 64be 7dfa 2d3e 23d1 6a3e
00000310: ccdf 423e a938 66be 471e 2fbe eb1d 1c3e
00000320: f51a 1a3e 356e 823b c1a9 3abe eb34 fb3d
00000330: 31a6 69be 3415 a43e c2e1 95be 71d6 cabd
00000340: b1a5 51be 1b1e 463e f4a6 90bd 9bd1 94be
00000350: b861 84be e67e 8dbe fe07 76bd 466f 8a3e
00000360: 2a28 8d3d e53e 8abe d3fc 4dbd c59d 553e
00000370: 07b0 82bb e80b 93be 93c8 94be bfcd 4dbd
00000380: 31c4 7fbe eb75 99be 7dca 04bc 9987 8b3d
00000390: 0f77 9abe c03f 83bd cf48 95be d628 33be
000003a0: 2bd9 803e 7559 60bd 005d 643e e28d 99be
000003b0: 4580 8c3d 9d5f f0bc efcd d1be a695 4dbe
000003c0: d894 58be c7d2 f53b 582a 9fbe 1956 3cbe
000003d0: d4c7 033e fd06 7e3e ee52 93bc e52a b6bd
000003e0: 21ef f43d 460c 96be 310d 45be e940 91be
000003f0: 1b51 5cbc 08ca 72be 42e4 8b3d abb0 20be
